checkpoint.pth (torch, 4141 bytes, 8 tensors)

layers.0.weight f4 [8, 6]
000000 64 ae 5d bc 62 6c 5a 3e d8 ce b3 be 5f 83 9a be
       -0.0135303475 0.21330407 -0.35118747 -0.30178353
000010 ed 4f 16 be 2b 4f c3 3d dc fb 2d bc ac d7 aa 3e
       -0.14678927 0.095365845 -0.01061913 0.3336767
000020 e6 d4 01 bd db 32 da 3d 1d 7f 0a be d8 8d 97 bd
       -0.031697176 0.10654231 -0.13525052 -0.074001014
000030 25 38 c2 be fc e5 8b be 39 74 32 be 3e 4d 03 bb
       -0.3793346 -0.27323902 -0.17427148 -0.0020035054
000040 ed 5e 25 3e f2 fb 80 3e 7e c5 84 be ec be 2b be
       0.16149493 0.2519222 -0.25931925 -0.1677205
000050 c2 e6 2a 3e 0d 09 aa 3e 5d 4e c0 bd 13 15 9f 3e
       0.1668959 0.3321003 -0.093899466 0.31070766
000060 9c d7 9c bd 9e 41 f4 3c ba 53 b7 3e 35 c7 c1 be
       -0.07658312 0.029816445 0.35806066 -0.37847295
000070 80 ea 79 be 72 75 ea bd 87 28 2b be bb dd a9 3e
       -0.24405861 -0.11448182 -0.16714679 0.3317698
000080 e7 2b 87 be 49 82 3b be 89 6e 8c be 50 e9 c7 be
       -0.26400682 -0.18311419 -0.27428082 -0.3904519
000090 3a 98 77 be ff e4 ba 3e 72 56 36 3e ca 04 38 3e
       -0.24179164 0.36502835 0.17806414 0.17970577
0000a0 60 ff b4 3c f7 1d 4b be 12 fa 69 3d bb 51 c7 be
       0.022094429 -0.1983565 0.05712325 -0.38929543
0000b0 16 a5 94 be f0 f2 37 be f5 ff 77 3e 24 96 7e 3e
       -0.290322 -0.17963767 0.24218734 0.24861962

layers.0.bias f4 [8]
000000 fd b0 43 be 71 f6 71 bc 22 3e 8a 3e 57 f4 d8 3e
       -0.19110484 -0.014768229 0.2700053 0.42373917
000010 e7 61 1b 3e dc 48 41 3d a5 e2 8c 3e 53 39 80 be
       0.15174066 0.047188625 0.27516666 -0.25043735

layers.1.weight f4 [16, 8]
000000 0b 82 97 3d 9a 1f 91 be 7b 47 76 be 23 d1 4b be
       0.073978506 -0.28344423 -0.24050705 -0.19903998
000010 67 48 13 3e b7 97 0c 3e e1 4a 68 be a6 c3 e2 3d
       0.14383088 0.1372975 -0.22684814 0.11072473
000020 1d 37 46 3e 34 3c 66 bd f7 42 e3 3c d5 49 a5 3d
       0.19356962 -0.056209758 0.027741892 0.08070723
000030 56 2f 51 3e 8e 88 ac 3e 96 66 8c be 4f c8 e1 bd
       0.20428213 0.33697933 -0.27422017 -0.11024534
000040 46 cb 17 3e ba 57 9c 3e ba 0b 99 3e 80 13 9f 3e
       0.14823636 0.3053568 0.2989176 0.31069565
000050 7f 8e b6 3d ce 82 95 be a0 62 11 3d 9e a0 63 be
       0.08913898 -0.2920136 0.035494447 -0.2222924
000060 d6 ea b0 be 0d a1 9f 3e 7b af 88 3e 5b c8 b8 be
       -0.34554166 0.3117756 0.2669638 -0.3609036
000070 12 9e 7d 3d bc 9e 7d bd f0 50 77 bd 4e f2 28 be
       0.061918326 -0.06191896 -0.060379922 -0.16498682
000080 df de f8 3d 89 3a 69 be 8f 60 04 3e 0a 7a 35 3e
       0.12151884 -0.22776236 0.12927459 0.17722335
000090 ea 89 7e 3e 7a fc fd 3d a8 24 be be 71 50 67 be
       0.24857298 0.12401672 -0.37137341 -0.2258928
0000a0 87 be 2d 3e d7 70 89 3d 0c c9 8d be 26 52 5e be
       0.16967212 0.067109756 -0.2769245 -0.21711025
0000b0 7b bc a4 3e 6d a4 73 3e 74 66 19 be 4d 17 a7 bd
       0.3217505 0.23793192 -0.14980489 -0.08158741
0000c0 38 3a b2 be 79 28 aa bb b4 49 8d be 9b 4f 90 be
       -0.34810042 -0.005192813 -0.27595294 -0.28185734
0000d0 f4 9f 93 bc fa 92 59 3d cf 0d 1b be f5 33 4e 3e
       -0.018020608 0.053118683 -0.15141986 0.20137008
0000e0 1d 94 5b be 12 fd 9d 3e be b0 83 3e 6f 61 9c be
       -0.2144322 0.3085714 0.2572078 -0.30543086
0000f0 5b f0 d7 bd 7e 18 46 3c da ad 42 3d c8 71 d2 3d
       -0.10543891 0.0120908 0.04752908 0.10275608
000100 6f 57 22 3e 62 82 0b 3d 31 c2 20 be 27 02 42 3e
       0.15853666 0.03405989 -0.15699078 0.18946134
000110 aa 14 a4 be 7d 55 65 be 1e e5 ad bd 49 ea 20 be
       -0.32047015 -0.22395892 -0.08490966 -0.15714373
000120 02 7d 03 be d6 0c 9a be 62 10 90 bd 62 ca 96 3d
       -0.12840655 -0.30087918 -0.07034375 0.0736282
000130 85 b5 77 be 14 f0 a0 bc d0 59 80 3e 5c 84 c9 bc
       -0.24190338 -0.019645728 0.25068521 -0.024599247
000140 02 98 1f 3c d0 e8 1d bd b8 2e b6 3d de 74 6c 3e
       0.009740831 -0.038552105 0.0889563 0.23091456
000150 5c f0 a5 3e cd 33 69 3e d9 74 a9 3e cd 18 35 bc
       0.32409942 0.22773667 0.3309696 -0.011053276
000160 12 9d a2 be 61 a2 2b be 39 a9 79 3e 97 a6 e1 3a
       -0.3176046 -0.16761161 0.2438096 0.0017215785
000170 33 f3 33 be 9d b7 8a be 46 68 a9 be 78 fd 98 be
       -0.17573242 -0.2709321 -0.33087367 -0.2988088
000180 98 de 92 bd 4e 8b 46 3e a6 bb 43 3e b0 94 ae be
       -0.07171363 0.19389078 0.19114551 -0.34097815
000190 4e d5 61 3e 3b a6 8d be d0 13 99 bd f9 cb 12 be
       0.22054026 -0.27665886 -0.07474482 -0.14335622
0001a0 fa 77 97 bd 4d 78 73 bd 82 cb aa be df 3a 94 be
       -0.073959306 -0.0594409 -0.3335839 -0.28951165
0001b0 f6 04 13 bd b7 87 bf 3b 17 f0 21 be 55 0f dd 3d
       -0.035893403 0.005845036 -0.15814243 0.1079394
0001c0 b4 f6 9b be c6 fd 25 bc ea 58 a6 3e 8b 4c 05 be
       -0.30461657 -0.010131305 0.3248971 -0.1301748
0001d0 43 43 a8 3e b7 d1 10 3e c9 55 a1 be 2b ca 70 3e
       0.32863817 0.141425 -0.3151076 0.23514621
0001e0 36 34 f9 bc 4f 2a 2b be b1 a0 96 3e a4 fb 93 be
       -0.030420404 -0.16715358 0.29419473 -0.28902924
0001f0 4e f0 f9 3c 17 03 97 bd a2 68 7b 3e c8 6c e9 3d
       0.030510094 -0.07373636 0.24551633 0.113977015

layers.1.bias f4 [16]
000000 e7 40 1a 3e 98 2a f7 3d 99 8f 9f bd 58 6c a2 bd
       0.15063821 0.12068671 -0.07791061 -0.07930821
000010 f7 10 97 be dd 00 3f 3e 66 a3 8d 3e ea 31 6d 3e
       -0.2950513 0.18652673 0.27663726 0.23163572
000020 88 11 68 be 28 06 49 3c a7 3e 83 be f5 42 3d be
       -0.22662938 0.012269534 -0.25633737 -0.18482573
000030 40 f6 52 be 10 c4 04 3e 64 83 4c be 6a 49 57 bc
       -0.2060175 0.12965417 -0.19971997 -0.013140062

layers.2.weight f4 [8, 16]
000000 e2 d9 9b ba 36 e2 18 3e 75 f4 3e be 61 fa 2f be
       -0.0011890496 0.14930043 -0.1864794 -0.17185356
000010 0a 3c 1a be 17 a4 25 3e a8 ca c6 bd 30 5c 53 3e
       -0.15061966 0.16175877 -0.09706622 0.20640635
000020 2f 63 d8 3d a4 cb 14 3d bf 1a bd bb 50 1c 6a bd
       0.10565793 0.03632702 -0.0057710106 -0.057155907
000030 40 7a 00 3d 2a 35 72 bd 78 eb 17 3c 30 49 07 3d
       0.031366587 -0.059132732 0.009272449 0.03302878
000040 98 3e 48 be 7a 2d 06 be d8 b7 4e 3e 86 c1 4f be
       -0.19555128 -0.13103285 0.20187318 -0.20288667
000050 20 0f 93 bc c0 3e 7d 3e 10 f4 b8 3d c0 f0 e7 3b
       -0.017951548 0.24730968 0.09030926 0.00707826
000060 26 da 5d be 2c a2 fd 3d 08 58 36 be a8 56 91 bd
       -0.21665248 0.123844475 -0.17807019 -0.070966065
000070 cc c8 ab bd 38 a4 17 bd 80 36 33 3b 96 26 53 3e
       -0.08387908 -0.037021846 0.0027345717 0.20620188
000080 80 ab ff 3c 38 19 5d 3e 56 cc 10 3e c6 d8 21 be
       0.031209707 0.21591651 0.14140448 -0.15805349
000090 f9 37 cf 3d 40 e7 2d be 9c ff d8 bd 40 97 96 3d
       0.10118098 -0.16982746 -0.105956286 0.073530674
0000a0 63 55 a9 3d 6c 11 36 3e d9 03 bc bd 00 d4 d1 39
       0.08268239 0.17780083 -0.091804214 0.0004002154
0000b0 7a cb 03 3e 5a 93 77 be bd 0a 33 3e 30 b1 53 be
       0.12870589 -0.24177304 0.17484565 -0.2067306
0000c0 00 d0 61 3b e0 18 2e bd 0a d4 06 be d8 57 07 3d
       0.0034456253 -0.04250419 -0.13166824 0.03304276
0000d0 f2 b0 53 3e e8 aa 95 bd 56 fc 17 be 84 5b bd bd
       0.20672968 -0.073079884 -0.14842352 -0.09245971
0000e0 e6 bb 7d be 1c 1d e7 3d 20 e5 f5 bd d0 d6 2a be
       -0.24778709 0.11284849 -0.12006593 -0.16683507
0000f0 62 7b 13 be 52 30 13 3e 24 92 07 3e 50 7c 44 3e
       -0.14402536 0.14373901 0.13239342 0.19188046
000100 93 03 a8 3d b1 de bf bd d9 2b 8a bd 4f b9 9f 3d
       0.08203807 -0.09368647 -0.067466445 0.07799017
000110 5f ca 4c 3e 56 3d 6d 3d 40 96 fb bd 54 e9 f3 bd
       0.19999073 0.057919823 -0.12284517 -0.11909738
000120 71 1f 79 be 61 d4 7b 3d 36 d8 12 be 1a e9 63 be
       -0.243284 0.061481837 -0.1434029 -0.2225689
000130 fa 7a 60 3e d4 03 28 be 8e 44 f7 bc fa 4c 9f 3d
       0.21921912 -0.1640771 -0.030184057 0.07778354
000140 f0 e8 a3 3c 0f 5a 26 be 6d 64 52 be bb 44 56 3e
       0.020008534 -0.16245292 -0.20546122 0.20924656
000150 5b d2 e8 3c 56 6d 61 3e 23 78 99 bd cc d9 a4 3d
       0.028420618 0.22014365 -0.074936174 0.08049354
000160 7f b1 98 bd 90 4e 2d bc 2c 36 19 be ac 28 ad 3d
       -0.0745573 -0.010577813 -0.14962071 0.08455023
000170 80 e0 a1 3d 74 5e a2 bb 13 40 93 bd e6 bc 19 be
       0.07904148 -0.0049551073 -0.071899556 -0.15013465
000180 14 09 31 3e 94 92 3e be ac bf d1 3d 6c 29 ac bd
       0.1728862 -0.18610603 0.10241637 -0.08406338
000190 0c 06 f7 bd e0 f4 37 3d 22 fb 04 be 40 ef 6b 3d
       -0.120617 0.044911265 -0.12986425 0.057601213
0001a0 10 18 49 3d ca 13 3e be 98 7e 2a 3d 64 13 da 3d
       0.049095213 -0.18562236 0.041624635 0.1064823
0001b0 5c aa ca 3d 58 e6 00 bd 9a dd 51 be 90 da 1d bd
       0.09895775 -0.031469673 -0.2049469 -0.038538516
0001c0 3a 43 aa 3d ad e9 bf bd 79 0f bc 3d 17 2b 1d 3e
       0.08313604 -0.09370742 0.09182639 0.15348469
0001d0 b8 c4 fa bd 98 85 83 bb 24 09 c8 3d c0 52 54 3c
       -0.122445524 -0.0040137284 0.097673684 0.012959182
0001e0 e4 45 df 3c 15 d5 93 3c b6 0b 50 be 62 70 96 3b
       0.027255006 0.018045941 -0.20316967 0.004591034
0001f0 b4 45 31 3e 93 84 6c 3e d0 f5 27 3e 63 29 94 3c
       0.17311746 0.23097448 0.16402364 0.018086141

layers.2.bias f4 [8]
000000 02 dc e4 3d dc 13 f9 bd 77 f9 5c be ca 23 5c be
       0.11174776 -0.12161991 -0.21579538 -0.21498027
000010 ed a0 7c 3e c8 2b 27 3e b2 f4 30 be 83 e4 b4 3d
       0.24670763 0.16325295 -0.17280844 0.08832648

layers.3.weight f4 [3, 8]
000000 52 a8 83 3e 19 f3 b4 3e fa 28 98 3e d3 3e 8c 3e
       0.25714356 0.3534172 0.29718763 0.2739168
000010 53 44 af bd 98 00 09 be 2f a0 94 3e 8b e1 49 3e
       -0.08557954 -0.13379133 0.2902846 0.19714944
000020 61 85 57 be 4f bd a2 3e c2 34 29 3e 32 5c 45 3e
       -0.21046974 0.31785056 0.16524032 0.19273451
000030 f7 37 62 be 56 95 d3 3d 96 d5 fd bd c1 8e 8c 3e
       -0.22091661 0.10331218 -0.12394254 0.27452663
000040 92 b5 5c bd 38 f2 0c 3e 7b 80 b3 3d 32 09 1a 3e
       -0.053884096 0.13764274 0.0876474 0.1504257
000050 2e a0 e5 bd 51 fe 3b 3e 9d df 7c be 42 69 b3 3d
       -0.112121925 0.18358733 -0.24694677 0.08760311

layers.3.bias f4 [3]
000000 51 63 78 be f8 c2 b2 be 90 c3 8d be
       -0.24256636 -0.34914374 -0.27688265
