checkpoint.pth (torch, 4141 bytes, 8 tensors)

layers.0.weight f4 [8, 6]
0	0xbca4bc6e	-0.020109382
1	0x3e6e5181	0.23273279
2	0xbea6a93a	-0.32550985
3	0xbe9c3ea2	-0.30516535
4	0xbe06ffa7	-0.13183461
5	0x3d87755c	0.066141814
6	0xbc6f81bd	-0.014618334
7	0x3ea9a59a	0.33134156
8	0xbc531903	-0.012884381
9	0x3dd7518c	0.10513601
10	0xbe001a0d	-0.12509938
11	0xbdb499d6	-0.088184044
12	0xbec509dd	-0.38484088
13	0xbe8f406f	-0.27978846
14	0xbe492e59	-0.19646586
15	0xbc54a6e5	-0.012979244
16	0x3e3b89ec	0.18314332
17	0x3e75ad28	0.23991835
18	0xbe8e7f44	-0.2783147
19	0xbe45ea44	-0.19327646
20	0x3e34aac6	0.1764327
21	0x3eaf9a2d	0.34297314
22	0xbdb35e69	-0.08758242
23	0x3e8daecb	0.2767242
24	0xbdae49fa	-0.08510204
25	0x3d93c192	0.07214655
26	0x3eb80dc1	0.35947993
27	0xbed44f3c	-0.414667
28	0xbe6550a9	-0.2239405
29	0xbe074acd	-0.13212128
30	0xbe244ab8	-0.16044128
31	0x3eb8d901	0.3610306
32	0xbe7a0917	-0.2441753
33	0xbe4dab15	-0.20084794
34	0xbe7ef8bd	-0.24899574
35	0xbed0ae62	-0.40758044
36	0xbe63b656	-0.22237524
37	0x3ebff7be	0.374937
38	0x3e48ee8e	0.19622251
39	0x3e233bbd	0.15940757
40	0x3cb11fa4	0.021621533
41	0xbe49ada2	-0.19695142
42	0x3dd69573	0.10477724
43	0xbecff0ba	-0.40613347
44	0xbea72e7e	-0.32652658
45	0xbe48cdf6	-0.19609818
46	0x3e749b8f	0.23887466
47	0x3e8d302a	0.2757581

layers.0.bias f4 [8]
0	0xbe467257	-0.19379555
1	0xbc91fc28	-0.017820433
2	0x3e8c1883	0.2736245
3	0x3ecdc6cb	0.4019073
4	0x3e18670a	0.14883056
5	0x3d8384cd	0.06421814
6	0x3e94ef20	0.29088688
7	0xbe4e9b70	-0.20176482

layers.1.weight f4 [16, 8]
0	0x3d058343	0.032595884
1	0xbe8e7d10	-0.2782979
2	0xbe765e30	-0.24059367
3	0xbe7de929	-0.24795975
4	0x3e04644d	0.12928887
5	0x3e287b8c	0.1645338
6	0xbe473d5b	-0.19456999
7	0x3df80cee	0.12111841
8	0x3e39eeb4	0.18157464
9	0xbd235bd4	-0.039882496
10	0x3d4b59da	0.049646236
11	0x3d814d56	0.06313579
12	0x3e4d4dde	0.20049235
13	0x3eb492a4	0.35268128
14	0xbe8120dd	-0.25220385
15	0xbd9bb719	-0.076032825
16	0x3e0f854c	0.14015692
17	0x3e9177db	0.28411755
18	0x3e8c74da	0.274329
19	0x3e95d73f	0.29265782
20	0x3d9e7136	0.07736437
21	0xbe94e313	-0.29079494
22	0x3d067709	0.032828365
23	0xbe7d9a4b	-0.2476589
24	0xbeb50198	-0.35352778
25	0x3e9b3383	0.30312738
26	0x3e829b67	0.25509188
27	0xbebc56d4	-0.36784995
28	0x3d58332a	0.05278317
29	0xbd97b7d7	-0.074081115
30	0xbd949d79	-0.07256598
31	0xbe2db824	-0.16964775
32	0x3e174b11	0.1477473
33	0xbe3cdc0d	-0.18443318
34	0x3de80f3f	0.11331033
35	0x3e3dfca3	0.18553405
36	0x3e95b2ba	0.2923792
37	0x3e026b91	0.12736346
38	0xbeb5df79	-0.3552206
39	0xbe67df9b	-0.22643892
40	0x3e268bd5	0.16264279
41	0x3dd01229	0.10159714
42	0xbe8bfe91	-0.27342656
43	0xbe5b2ee8	-0.21404612
44	0x3eb4bee6	0.35301894
45	0x3e8903ad	0.26760617
46	0xbe08db72	-0.13364962
47	0xbdee189c	-0.116257876
48	0xbeb4e312	-0.3532949
49	0xbd4e02ea	-0.050295748
50	0xbe972631	-0.29521325
51	0xbe9556b1	-0.29167703
52	0xbd64c529	-0.05585209
53	0x3cb2c647	0.021823062
54	0xbe2e6796	-0.17031702
55	0x3e573c99	0.2101921
56	0xbe4c5ff0	-0.19958472
57	0x3eb2cf08	0.34923577
58	0x3e902683	0.28154382
59	0xbe989295	-0.29799333
60	0xbd922f2c	-0.071379036
61	0x3d3285f1	0.043584768
62	0x3d979311	0.074010976
63	0x3e0ae866	0.13565215
64	0x3e2a614c	0.16638678
65	0x3d213701	0.039359096
66	0xbe33cb6b	-0.17558067
67	0x3e2cba55	0.16867955
68	0xbea323aa	-0.31863147
69	0xbe405684	-0.18783003
70	0xbd996054	-0.07489076
71	0xbe3dc3a9	-0.1853167
72	0xbe017882	-0.12643626
73	0xbe83a940	-0.25715065
74	0xbd58e3bb	-0.052951556
75	0x3d98610a	0.07440384
76	0xbe62284c	-0.22085685
77	0x3c66fb69	0.014098027
78	0x3e8858f7	0.26630375
79	0x3cd9268d	0.02650764
80	0x3c1118f0	0.008856043
81	0xbd196311	-0.037447993
82	0x3db1082d	0.086441375
83	0x3e574852	0.21023682
84	0x3e9eb808	0.3099978
85	0x3e63d0b9	0.2224759
86	0x3eaa5162	0.33265215
87	0xbc03049c	-0.007996704
88	0xbea535d7	-0.3226764
89	0xbe2ba261	-0.16761161
90	0x3e802aca	0.25032645
91	0x3c11c00c	0.008895885
92	0xbe1133f6	-0.14179978
93	0xbe8ab79d	-0.2709321
94	0xbea10b4a	-0.31453925
95	0xbea5999c	-0.32343757
96	0xbd92de98	-0.07171363
97	0x3e468b4e	0.19389078
98	0x3e43bba6	0.19114551
99	0xbeae94b0	-0.34097815
100	0x3e61d54e	0.22054026
101	0xbe8da63b	-0.27665886
102	0xbd9913d0	-0.07474482
103	0xbe12cbf9	-0.14335622
104	0xbd4e0883	-0.050301086
105	0xbd778107	-0.060425784
106	0xbe985901	-0.29755405
107	0xbe9c1bfa	-0.30490094
108	0xbd7a04da	-0.061039783
109	0xbbbf8341	-0.005844504
110	0xbe274488	-0.16334736
111	0x3e1c789d	0.15280385
112	0xbe9728da	-0.29523355
113	0xbd260636	-0.040533267
114	0x3eb47dbb	0.35252175
115	0xbe097121	-0.13422062
116	0x3ea5a8aa	0.32355243
117	0x3df921d4	0.12164655
118	0xbeac6fd1	-0.3367906
119	0x3e899d93	0.26878032
120	0x3cd1a33f	0.025590537
121	0xbe0d1f9e	-0.13781592
122	0x3eb05b9b	0.3444489
123	0xbe8a66e9	-0.2703164
124	0x3d8202ca	0.06348188
125	0xbd47575f	-0.048667308
126	0x3e89ba8e	0.26900142
127	0x3e29637d	0.16541858

layers.1.bias f4 [16]
0	0x3e11bad6	0.14231429
1	0x3e004b55	0.12528737
2	0xbdc26245	-0.094914
3	0xbdca94ab	-0.098916374
4	0xbe8be818	-0.2732551
5	0x3e4db0cb	0.20086972
6	0x3e825712	0.25457054
7	0x3e842443	0.25808915
8	0xbe786e86	-0.24260911
9	0x3cbd45af	0.023104517
10	0xbe8a0099	-0.2695358
11	0xbe2fe05c	-0.1717543
12	0xbe52f640	-0.2060175
13	0x3df50ca3	0.11965301
14	0xbe30e1f0	-0.17273688
15	0x3cbfec36	0.023428064

layers.2.weight f4 [8, 16]
0	0x3c44f832	0.012022065
1	0x3e17faf9	0.14841832
2	0xbe4298b9	-0.19003572
3	0xbe2186a2	-0.15774015
4	0xbe27d2ea	-0.16389051
5	0x3e340524	0.17580086
6	0xbd95aee5	-0.07308749
7	0x3e757b54	0.23972827
8	0x3dc6ad92	0.09701075
9	0x3d164556	0.036687218
10	0x3c4e230f	0.012581601
11	0xbdb173e5	-0.08664683
12	0x3d007a40	0.031366587
13	0xbd0a2d39	-0.033734534
14	0x3d2530ad	0.040329624
15	0x3d8940db	0.06701823
16	0xbe483e98	-0.19555128
17	0xbe1393fc	-0.1441192
18	0x3e415156	0.18878683
19	0xbe4fc186	-0.20288667
20	0xbc930f20	-0.017951548
21	0x3e7d3ec0	0.24730968
22	0x3db8f410	0.09030926
23	0xbbc4e080	-0.006008208
24	0xbe5dda26	-0.21665248
25	0x3dfda22c	0.123844475
26	0xbe43be8a	-0.19115654
27	0xbd9156a8	-0.070966065
28	0xbdabc8cc	-0.08387908
29	0xbd17a438	-0.037021846
30	0xbc299b03	-0.010351899
31	0x3e45c014	0.19311553
32	0x3cffab80	0.031209707
33	0x3e590423	0.21192984
34	0x3e087bf0	0.13328528
35	0xbe21d8c6	-0.15805349
36	0x3dc9493c	0.098284215
37	0xbe23fdd2	-0.16014794
38	0xbdd8ff9c	-0.105956286
39	0x3d969740	0.073530674
40	0x3da8e45c	0.08246681
41	0x3e086804	0.13320929
42	0xbdcd2a48	-0.1001783
43	0x39d1d400	0.0004002154
44	0x3e03cb7a	0.12870589
45	0xbe77935a	-0.24177304
46	0x3e19ba2a	0.15012422
47	0xbe53b130	-0.2067306
48	0x3b61d000	0.0034456253
49	0xbd2e18e0	-0.04250419
50	0xbe06d40a	-0.13166824
51	0x3d0757d8	0.03304276
52	0x3e53b0f2	0.20672968
53	0xbd95aae8	-0.073079884
54	0xbe17fc56	-0.14842352
55	0xbdbd5b84	-0.09245971
56	0xbe7dbbe6	-0.24778709
57	0x3de71d1c	0.11284849
58	0xbdf5e520	-0.12006593
59	0xbe2ad6d0	-0.16683507
60	0xbe137b62	-0.14402536
61	0x3e133052	0.14373901
62	0x3e079224	0.13239342
63	0x3e447c50	0.19188046
64	0x3dd4015f	0.10351824
65	0xbd9dba5d	-0.077015616
66	0xbd73daa7	-0.059534695
67	0x3db360e8	0.08758718
68	0x3e3f94c6	0.18709096
69	0x3db1fd4f	0.08690893
70	0xbdccca40	-0.099995136
71	0xbdb78bb5	-0.08962194
72	0xbe6daf7b	-0.23211472
73	0x3d7aefcc	0.061263844
74	0xbde8df36	-0.11370699
75	0xbe821f83	-0.25414667
76	0x3e607afa	0.21921912
77	0xbe1525f7	-0.14565264
78	0xbc6f7c8b	-0.014617096
79	0x3dd71e5d	0.10503838
80	0x3c93356e	0.017969813
81	0xbe0f5bcf	-0.13999866
82	0xbe357346	-0.17719755
83	0x3e45267d	0.19252963
84	0x3d61aca2	0.055096276
85	0x3e651231	0.2237022
86	0xbdc04274	-0.09387675
87	0x3d547cb9	0.051876757
88	0xbdcd2894	-0.10017505
89	0xbc03a798	-0.008035563
90	0xbe15a28a	-0.14612785
91	0x3de13725	0.10996846
92	0x3da1e080	0.07904148
93	0xbcfeb39b	-0.031091502
94	0xbde8d712	-0.113691464
95	0xbe39d30f	-0.18146919
96	0x3e310914	0.1728862
97	0xbe3e9294	-0.18610603
98	0x3dd1bfac	0.10241637
99	0xbdac296c	-0.08406338
100	0xbdf7060c	-0.120617
101	0x3d37f4e0	0.044911265
102	0xbe04fb22	-0.12986425
103	0x3d6bef40	0.057601213
104	0x3d491810	0.049095213
105	0xbe3e13ca	-0.18562236
106	0x3d2a7e98	0.041624635
107	0x3dda1364	0.1064823
108	0x3dcaaa5c	0.09895775
109	0xbd00e658	-0.031469673
110	0xbe51dd9a	-0.2049469
111	0xbd1dda90	-0.038538516
112	0x3d8e38f2	0.06944455
113	0xbdfbac7a	-0.12288757
114	0x3d8d9f4b	0.06915148
115	0x3e1fd6a8	0.15609229
116	0xbdfc2695	-0.123120464
117	0xbcccaff4	-0.024986245
118	0x3dc7c2c9	0.09753949
119	0x3c9862e4	0.018601842
120	0x393ccb1b	0.0001800474
121	0x3cb23c36	0.021757226
122	0xbe5f4f7a	-0.21807662
123	0xbb87c96b	-0.004143884
124	0x3e3145b4	0.17311746
125	0x3e6ee6d6	0.23330244
126	0x3e332487	0.17494403
127	0x3cff632e	0.031175222

layers.2.bias f4 [8]
0	0x3df85fac	0.12127623
1	0xbe09f070	-0.13470626
2	0xbe64243c	-0.22279447
3	0xbe5c23ca	-0.21498027
4	0x3e86ecf9	0.2635267
5	0x3e2a5ede	0.16637751
6	0xbe30f4b2	-0.17280844
7	0x3d95debc	0.07317874

layers.3.weight f4 [3, 8]
0	0x3e8705ed	0.2637171
1	0x3ebba657	0.36650345
2	0x3e9571fa	0.2918852
3	0x3e8c3ed3	0.2739168
4	0xbdb1ad92	-0.08675684
5	0xbdfd031a	-0.12354107
6	0x3e94a02f	0.2902846
7	0x3e524a6c	0.20536202
8	0xbe722208	-0.23645794
9	0x3e9c0a11	0.3047643
10	0x3e336e47	0.17522536
11	0x3e455c32	0.19273451
12	0xbe731574	-0.23738652
13	0x3dad4e2f	0.08462178
14	0xbdfdd596	-0.12394254
15	0x3e8656de	0.2623815
16	0xbd100992	-0.035165377
17	0x3e1a58ba	0.15072909
18	0x3dac5209	0.084140845
19	0x3e1a0932	0.1504257
20	0xbdc274df	-0.09494948
21	0x3e44a875	0.19204886
22	0xbe7cdf9d	-0.24694677
23	0x3dbb41e5	0.09143428

layers.3.bias f4 [3]
0	0xbe762dbe	-0.24040887
1	0xbebd24c8	-0.36942124
2	0xbe84c234	-0.25929415
