checkpoint.pth (torch, 2993 bytes, 4 tensors)

layers.0.weight f4 [32, 6]
00000000: 9989 813b cda1 603e 236b 9fbe 3e21 99be
00000010: 971e 33be 1aa4 ed3d fa82 21bd 3865 9e3e
00000020: ed13 79bd ed82 d03d 6adf e5bd b744 adbd
00000030: e951 d4be db9f 88be 658c 42be 10fa 683c
00000040: 438a 3a3e 08e8 6f3e 1645 8abe 684a 10be
00000050: 43b1 353e 719c a23e 443a d7bd 2cd1 a33e
00000060: 13d0 d2bc ca0a 503d 675b d33e 1219 c1be
00000070: 83f8 93be 4547 95bd 4937 06be bfd0 b33e
00000080: 9ad6 70be e550 2ebe 4370 88be a00d cebe
00000090: 1449 48be 704b b13e a4cb 603e a0c6 613e
000000a0: 8f75 053d 6714 61be c378 9d3d 87f1 d0be
000000b0: c9df 9abe d5bd 2ebe af22 7e3e ba16 7a3e
000000c0: 5780 29be 3c27 8e3c 54a5 913e 6e29 c13e
000000d0: 4211 3e3e 78ec b63c 1626 893e 42a4 83be
000000e0: 986b 973d e8af a4be c938 9ebe ae51 38be
000000f0: 5249 353e db76 283e 0a28 8bbe 1557 db3d
00000100: c4a8 5b3e 112e f6bc 5604 f43c 6ace ac3d
00000110: 236c 863e 8b7a cc3e 0b70 8bbe cb93 37be
00000120: 3ab8 283e a0e9 a53e 987f b53e acae bf3e
00000130: 8ae3 a33d 390d b5be 1778 933d 4037 6dbe
00000140: c4c1 afbe 9df9 b63e ca72 ab3e 7332 e3be
00000150: e59c c93d 0c5f acbd 93d1 65bd 451b 47be
00000160: 45dd 0e3e d5a7 69be 11fa 233e ce99 5b3e
00000170: 2c64 9f3e f1fc 073e d24d e5be f35e 61be
00000180: a85f 833e 165d c73d 775e 84be 137d 87be
00000190: bb9e ba3e 28ad 993e 6246 31be 852a c6bd
000001a0: 8234 bdbe 79d1 97bc 0db7 9dbe 82e9 9bbe
000001b0: 96cd 27bb d17c b93d 9a91 08be 040f 683e
000001c0: 685f 8ebe d0ed c43e f6cb 9c3e 668e a3be
000001d0: e6fa 99bd c826 36bc 97cb 173d fe5b f73d
000001e0: 1fad 303e 0506 a13c 1053 3fbe edd1 4d3e
000001f0: 1280 b5be 9e54 8abe 0d00 dbbd 0d71 3ebe
00000200: 6a48 0ebe 49a7 aabe c6c1 c3bd f475 b73d
00000210: 6883 88be f142 44bd 04cf 973e 88c2 3dbd
00000220: 4c5c 38bd 3976 c43b 873c c53d d0dd 813e
00000230: 3a43 ce3e bdf6 923e 1c4f cd3e f8d6 86bd
00000240: d15b c4be 65e9 3fbe 4f77 833e eff7 233c
00000250: f34c 58be 2891 9fbe 0905 d1be 52dd b1be
00000260: b260 dbbd 0a33 543e 4b71 4e3e 7147 bebe
00000270: 39ab 893e caa0 9abe 7b3c 8fbd c8ed 3ebe
00000280: 610a bebd 4cba 93bd e17a bfbe 05bb a7be
00000290: 365e 99bd ac73 f3bb 7e11 2ebe 8950 143e
000002a0: aacd b7be db85 32bd 933e bb3e dad9 1fbe
000002b0: 4a7b b13e ba50 3a3e 647e aabe 24bd 803e
000002c0: 3fc8 90bc 20f2 1dbe 2480 ad3e 414b b7be
000002d0: a7e7 503d cf6b 69bd 6a04 9e3e 4748 b53d
000002e0: 3992 443e 137c 1b3e c4fb 0fbe 0e92 94bd
000002f0: 7936 c0be a54e 5d3e 892e a63e f1d6 873e
0.0039531705 0.21936722 -0.31136426 -0.29908174 -0.17492138 0.116035655 -0.03943155 0.309366
-0.06081002 0.10181222 -0.112242535 -0.08460372 -0.41468742 -0.2668446 -0.18998869 0.014219776
0.18216805 0.23428357 -0.27005833 -0.14090884 0.17743401 0.3175998 -0.1050916 0.31995523
-0.025733983 0.05079154 0.41280672 -0.3771444 -0.28900537 -0.07288984 -0.13107027 0.35120198
-0.23519364 -0.17023046 -0.2664815 -0.4024477 -0.19559127 0.34627867 0.21952683 0.22048426
0.032582816 -0.21980439 0.07689049 -0.4080927 -0.3024886 -0.17064603 0.24817918 0.24422732
-0.16552864 0.017352693 0.28446448 0.3772692 0.18561271 0.022329554 0.2678687 -0.25711256
0.07393569 -0.32165456 -0.309027 -0.17999908 0.1770375 0.1645159 -0.27178985 0.10709969
0.21451098 -0.030051263 0.029787224 0.08437808 0.26254377 0.39937243 -0.2723392 -0.17927472
0.16476527 0.32404804 0.3544891 0.37437952 0.08002384 -0.3536165 0.0720064 -0.23165607
-0.3432752 0.35737315 0.33486015 -0.44374427 0.098443784 -0.08416566 -0.05610807 -0.19443996
0.13951595 -0.22817929 0.16013362 0.2144539 0.31131113 0.13280083 -0.44785935 -0.22008877
0.25658917 0.097345516 -0.2585332 -0.26462612 0.36449227 0.3001492 -0.17312005 -0.09676079
-0.36954123 -0.018532502 -0.3080372 -0.3045159 -0.0025604717 0.0905701 -0.13336793 0.22661978
-0.27807164 0.38462687 0.3062436 -0.3194458 -0.07518558 -0.011117645 0.037059393 0.12078093
0.1725354 0.01965619 -0.1868403 0.20099612 -0.35449272 -0.27017683 -0.10693369 -0.18597813
-0.13894811 -0.33330753 -0.09558444 0.08958045 -0.26662755 -0.047915403 0.29650128 -0.046328098
-0.045009896 0.0059955386 0.09630685 0.25364542 0.40285665 0.2870387 0.40099418 -0.06583971
-0.383513 -0.18741377 0.25676963 0.010007842 -0.21123104 -0.31165433 -0.40824154 -0.34739166
-0.107118025 0.20722595 0.20160405 -0.3716388 0.26888445 -0.30200797 -0.069939576 -0.18645394
-0.09279323 -0.07213268 -0.37398437 -0.32759872 -0.074886724 -0.0074295606 -0.1699886 0.14483847
-0.35899097 -0.043584686 0.36571178 -0.15610448 0.34664375 0.18194857 -0.33299553 0.25144303
-0.01767361 -0.15424395 0.33886826 -0.35799602 0.05100217 -0.05698758 0.30862743 0.088516764
0.19196405 0.1518405 -0.14060885 -0.0725442 -0.3754156 0.21612032 0.32457379 0.26531175

layers.0.bias f4 [32]
00000000: 1bdf 92be 702c 53bc fe69 9abe 9fab 66be
00000010: f7c7 4abe 0789 253e d751 6dbe 9dc1 98bc
00000020: 00e7 0f3d 05a7 853e 4d42 a0be b82e 8dbe
00000030: 5183 79be 7a95 9d3e d7e1 19be f044 b53e
00000040: afc9 3c3e 912d 4c3d 0305 943b 8490 64bd
00000050: 1783 7d3d 60b5 d0bd c50a 433b 4d0e 723d
00000060: ee0f afbe 5e93 73be 8b85 af3e 1ce3 b0be
00000070: 190e 02bd 0c90 db3e 4d00 1a3e 9beb a4bc
-0.2868584 -0.012889013 -0.3015899 -0.22526406 -0.19802843 0.16165553 -0.2317575 -0.01864701
0.03513241 0.26103988 -0.31300583 -0.27574706 -0.243665 0.30778104 -0.15027557 0.35404158
0.18436311 0.049848143 0.004517199 -0.055801883 0.061892595 -0.101908445 0.0029761058 0.05909567
-0.3419184 -0.23786685 0.34281573 -0.3454827 -0.031751726 0.42883337 0.15039177 -0.020131877

layers.1.weight f4 [3, 32]
00000000: 6b3e 16be e013 8d3d f5e3 0cbe 740c e4bc
00000010: 4a32 c8bc e422 29bd 566a bdbc 3f99 1f3e
00000020: 2c3b 223c 6da2 1e3e e6b1 d13d 78d7 e1bd
00000030: 95f8 3c3d 32de 1cbe ac46 cbbd 59fd 463d
00000040: 2193 a23d 6a30 ec3d a470 10bd 0a55 163d
00000050: a033 9b3d b49c 21be f896 073e 19c1 2fbe
00000060: ef49 63bc eb07 5dbd ffe2 b8bd 6ffa 1b3d
00000070: 7eb3 143e 9d62 9dbd d71d b5bd 786c 60bd
00000080: 6ecb 39be 2240 a23d 6bb9 76bd 76b9 0dbe
00000090: 0ec4 10be e94e dd3d 3181 dc3d 52de 0a3e
000000a0: 923c c03d 117c 8fbd 10a4 24bd 8349 0a3d
000000b0: 1323 2c3e def3 8b3d 3cdb 8ebd da7f bebd
000000c0: bf46 44be f751 0e3d c3df febd ec1a 33be
000000d0: d010 223e 9bee 07be 0185 f9bc c8ef 833d
000000e0: fbfd d93b f9ae cfbd d1b5 20be 2cb3 fd3d
000000f0: 22fd a63c 7bcc 223e bd32 a8bd 092f 853d
00000100: 3a11 fabc ce3f 443c a25e efbd acff 813d
00000110: 829d 763d 2561 253c a865 d0bc 3565 e5bd
00000120: 42c7 d23d 0476 eabd 260e a03d 62e5 32bd
00000130: cd97 98bd c43a 2d3d 01c7 9ebd b829 6e3d
00000140: 845f 2b3d b0b1 dabd 5af0 273d 3667 7b3d
00000150: 739d a73d c6c4 70bc 8492 0fbe 83ef 8ebc
00000160: df79 a13d 3d7f 5abd 9be7 9b3d 920c f63d
00000170: e71d a6bd d357 9b3c 967c a43d 3c80 33bb
-0.14672248 0.068885565 -0.13758834 -0.02783797 -0.024438042 -0.04129304 -0.023121994 0.15585802
0.009901803 0.15491648 0.102390096 -0.110274255 0.046135504 -0.15319136 -0.09925589 0.048581455
0.07938219 0.11532672 -0.035263672 0.036702193 0.07578206 -0.15782434 0.13241184 -0.17163505
-0.013872608 -0.05396263 -0.09027671 0.03808063 0.14521596 -0.076848246 -0.08843582 -0.054790944
-0.18144009 0.079223886 -0.060235422 -0.13840279 -0.14137289 0.108060665 0.10766829 0.13561371
0.09386553 -0.07006086 -0.040195525 0.033761512 0.16810255 0.06833623 -0.069754094 -0.093017295
-0.19167612 0.034746137 -0.12445023 -0.17490739 0.15826726 -0.13274615 -0.030458929 0.06442219
0.0066525913 -0.10140795 -0.15694357 0.1238769 0.020384375 0.15898316 -0.082128026 0.06503112
-0.030525792 0.011978103 -0.11687972 0.06347594 0.060208805 0.010093962 -0.025439098 -0.11200944
0.10291912 -0.11448291 0.078151986 -0.043675788 -0.07450829 0.04229237 -0.07752801 0.058145255
0.041839138 -0.106784225 0.0410007 0.061377726 0.08184328 -0.014695352 -0.14020735 -0.017448192
0.07884573 -0.053344 0.076125346 0.12014116 -0.08111172 0.018962776 0.080315754 -0.0027389666

layers.1.bias f4 [3]
00000000: d489 933c 0335 bf3b 9ab9 00be
0.018010058 0.005835177 -0.12570801
