checkpoint.pth (torch, 2993 bytes, 4 tensors)

layers.0.weight f4 [32, 6]
-0.004259426 0.20080641 -0.31371337 -0.29011685 -0.15223157 0.1161388 -0.025175743 0.35185912
-0.08168925 0.06575504 -0.1483886 -0.082168974 -0.41693166 -0.21086624 -0.22900032 -0.019103505
0.25148556 0.18767497 -0.2664549 -0.14956023 0.1869918 0.31308973 -0.12048795 0.32598984
-0.008226188 0.032762535 0.43226203 -0.37794304 -0.33081305 -0.016787283 -0.056055848 0.35440975
-0.1664459 -0.19769382 -0.19654821 -0.47743684 -0.077812895 0.393691 0.30083779 0.1658605
0.12379974 -0.30422628 0.07483378 -0.39611098 -0.28963143 -0.17343509 0.24796967 0.24263856
-0.120675825 0.046511866 0.30232674 0.368917 0.2658807 -0.03819291 0.30060002 -0.23048885
0.07765324 -0.36065757 -0.40099698 -0.099706985 0.15370731 0.16002879 -0.27891636 0.10576062
0.16659975 -0.0014302104 0.054013178 0.06405113 0.28311744 0.41274253 -0.24726902 -0.20839982
0.21090765 0.360628 0.37868276 0.33238095 0.12274947 -0.42246988 0.16593947 -0.20306069
-0.27451065 0.33553877 0.4076435 -0.51126647 0.24732685 -0.056687757 0.05318364 -0.25173107
0.30415195 -0.32576296 0.1591477 0.21691804 0.3035551 0.12425528 -0.5338425 -0.12765703
0.268266 0.09507395 -0.23450254 -0.27988377 0.25878704 0.37143612 -0.14013523 -0.06013068
-0.3949205 -0.050157692 -0.35007975 -0.2995769 0.034205273 0.07821969 -0.09704351 0.2200988
-0.29345524 0.40967453 0.313075 -0.32341123 -0.060595408 -0.038603097 -0.016078828 0.16130517
0.21490511 0.04348852 -0.1588582 0.16052051 -0.3057494 -0.33558476 -0.122702636 -0.21589263
-0.1387335 -0.31052333 -0.059237435 0.080934264 -0.20473804 -0.045488425 0.33563817 -0.08773678
-0.13398421 0.09534393 0.1299268 0.2810848 0.4113411 0.27572247 0.5049972 -0.1542947
-0.39321113 -0.21761122 0.26101428 0.0103526665 -0.22024429 -0.2822078 -0.426994 -0.35984877
-0.11832983 0.21423587 0.18004936 -0.35069826 0.23324725 -0.32943943 -0.08960477 -0.16535921
-0.097400315 -0.041326582 -0.3928997 -0.31748846 -0.09125577 -0.0071968134 -0.12708987 0.11501059
-0.33731845 -0.04358988 0.41031882 -0.14994788 0.3189852 0.19506924 -0.23521738 0.2664618
0.040730152 -0.17241758 0.44059935 -0.43423116 0.016127726 -0.078342475 0.2700462 0.09974604
0.19515175 0.14254445 -0.12872474 -0.05370022 -0.39927796 0.2090037 0.3804285 0.22851476
00000000: a892 8bbb 32a0 4d3e 0a9f a0be 328a 94be
00000010: 98e2 1bbe 2eda ed3d 5c3d cebc e126 b43e
00000020: b24c a7bd 94aa 863d 2ef3 17be 3548 a8bd
00000030: 1178 d5be 52ed 57be 0f7f 6abe f47e 9cbc
00000040: b7c2 803e de2d 403e c76c 88be 5126 19be
00000050: c77a 3f3e 4c4d a03e 63c2 f6bd 24e8 a63e
00000060: 22c7 06bc 0232 063d 7351 dd3e c081 c1be
00000070: 5460 a9be 7c85 89bc d19a 65bd 3275 b53e
00000080: cb70 2abe 4070 4abe ef43 49be 9a72 f4be
00000090: 5e5c 9fbd de91 c93e 6907 9a3e 56d7 293e
000000a0: b88a fd3d 8cc3 9bbe 7442 993d 0fcf cabe
000000b0: 924a 94be f898 31be c3eb 7d3e 3e76 783e
000000c0: e324 f7bd 3a83 3e3d 92ca 9a3e b0e2 bc3e
000000d0: 8421 883e 2b70 1cbd 3fe8 993e 4505 6cbe
000000e0: a908 9f3d 1ca8 b8be 7a4f cdbe 2d33 ccbd
000000f0: 7365 1d3e 96de 233e 20ce 8ebe 0699 d83d
00000100: 2099 2a3e e675 bbba ec3c 5d3d 3d2d 833d
00000110: c5f4 903e fd52 d33e 1734 7dbe c366 55be
00000120: 2df8 573e 3ca4 b83e b5e2 c13e d62d aa3e
00000130: 1364 fb3d f94d d8be 09ec 293e 24ef 4fbe
00000140: a98c 8cbe bdcb ab3e a6b6 d03e 5ce2 02bf
00000150: 4043 7d3e 6c31 68bd 17d7 593d e5e2 80be
00000160: ceb9 9b3e 67ca a6be 9df7 223e c31f 5e3e
00000170: 936b 9b3e 8d79 fe3d e7a9 08bf 86b8 02be
00000180: 295a 893e 22b6 c23d 6f21 70be ed4c 8fbe
00000190: bc7f 843e e02c be3e 9c7f 0fbe 974b 76bd
000001a0: 0533 cabe 2772 4dbd a73d b3be 2562 99be
000001b0: d41a 0c3d a531 a03d bfbe c6bd 9461 613e
000001c0: c43f 96be dcc0 d13e 5e4b a03e 2896 a5be
000001d0: e432 78bd 481e 1ebd bfb7 83bc 2f2d 253e
000001e0: 1610 5c3e 0521 323d b9ab 22be 7d5f 243e
000001f0: 2f8b 9cbe c4d1 abbe 854b fbbd f512 5dbe
00000200: 2810 0ebe eafc 9ebe f4a2 72bd ddc0 a53d
00000210: d9a6 51be 1252 3abd c4d8 ab3e 57af b3bd
00000220: 2833 09be ae43 c33d 880b 053e 59ea 8f3e
00000230: 4d9b d23e 7f2b 8d3e 7f47 013f 6eff 1dbe
00000240: f852 c9be 7ad5 5ebe aaa3 853e 3b9e 293c
00000250: b887 61be 8a7d 90be f59e dabe 193e b8be
00000260: e956 f2bd a660 5b3e dc5e 383e b98e b3be
00000270: 5ed8 6e3e 49ac a8be b582 b7bd ed53 29be
00000280: d179 c7bd 1046 29bd 262a c9be d98d a2be
00000290: 4ee4 babd 3fd3 ebbb d923 02be ac8a eb3d
000002a0: 01b5 acbe 4d8b 32bd 4f15 d23e f08b 19be
000002b0: 0752 a33e 3bc0 473e d3dc 70be ae6d 883e
000002c0: a9d4 263d 3c8e 30be 3d96 e13e 8c53 debe
000002d0: 4b1e 843c 0572 a0bd 7f43 8a3e a747 cc3d
000002e0: dcd5 473e 2cf7 113e 6bd0 03be c3f4 5bbd
000002f0: 296e ccbe 1105 563e 86c7 c23e c6ff 693e

layers.0.bias f4 [32]
-0.28980014 0.011897977 -0.33923697 -0.20210683 -0.18482463 0.22635613 -0.08186001 -0.031083899
0.08235246 0.2971816 -0.35124856 -0.2440439 -0.1874628 0.4144541 0.013425391 0.3546176
0.20287994 0.07120788 0.05360883 -0.03336861 0.104781024 -0.120580085 0.069334626 0.11150489
-0.3633806 -0.26054487 0.31281778 -0.38030174 -0.018646907 0.5277315 0.12604561 -0.041459385
00000000: af60 94be bcef 423c 78b0 adbe 18f5 4ebe
00000010: ab42 3dbe e7c9 673e 39a6 a7bd a9a3 febc
00000020: 68a8 a83d 3028 983e dad6 b3be a5e6 79be
00000030: 40f6 3fbe 5433 d43e 2cf6 5b3c 7090 b53e
00000040: c2bf 4f3e 70d5 913d ef94 5b3d 86ad 08bd
00000050: 6f97 d63d b1f2 f6bd 50ff 8d3d ad5c e43d
00000060: 060d babe 2366 85be a729 a03e e9b6 c2be
00000070: 66c1 98bc 6919 073f 1a12 013e 51d1 29bd

layers.1.weight f4 [3, 32]
-0.08710666 0.10950615 -0.1492446 0.017726356 0.07433794 -0.057172436 -0.07366385 0.14616114
-0.040588766 0.20996672 0.07813016 -0.1117834 0.00018921282 -0.21051745 -0.16270043 0.10735419
0.108126976 0.12535918 0.031031158 0.08641343 0.07641177 -0.1076382 0.24408357 -0.23338103
-0.013936994 -0.073226035 -0.057339404 0.07596195 0.13564155 -0.14122218 -0.06620971 -0.071209535
-0.20067926 0.09066506 -0.0657488 -0.172956 -0.18395554 0.16618222 0.18481733 0.1406052
0.15815018 -0.07307358 -0.0064650346 0.05152985 0.23360942 0.14039224 0.016116625 -0.104567885
-0.20085084 0.06350274 -0.17072628 -0.2123413 0.19593194 -0.16184074 -0.10702082 0.14785965
0.030550916 -0.069407694 -0.14656667 0.10227374 0.05312699 0.24256061 -0.07591652 0.08287823
-0.07147553 -0.046587367 -0.09994552 0.04400066 -0.001926874 -0.042069204 -0.07086792 -0.10619114
0.081198014 -0.17325158 0.067314915 -0.06114093 -0.103651024 0.015668266 -0.11532672 0.004692485
0.020359894 -0.15237463 0.011323912 0.038525283 0.037212715 -0.03943605 -0.19543768 -0.048477665
0.04906639 -0.07079077 0.03096606 0.102486305 -0.09433515 -0.013895986 0.05372206 0.0010975281
00000000: fa64 b2bd c344 e03d 94d3 18be dd36 913c
00000010: 7d3e 983d a52d 6abd 13dd 96bd 44ab 153e
00000020: 6840 26bd 8401 573e b502 a03d b2ee e4bd
00000030: 6e67 4639 e391 57be f19a 26be 83dc db3d
00000040: ad71 dd3d 285e 003e 0e35 fe3c 86f9 b03d
00000050: c67d 9c3d 6b71 dcbd 0bf1 793e 70fb 6ebe
00000060: fd57 64bc 88f7 95bd b9dc 6abd f091 9b3d
00000070: 9ee5 0a3e 8c9c 10be f598 87bd 4ed6 91bd
00000080: dd7e 4dbe 9aae b93d 4fa7 86bd 611b 31be
00000090: d75e 3cbe ac2b 2a3e c140 3d3e cffa 0f3e
000000a0: 1ff2 213e 9aa7 95bd a4d8 d3bb f710 533d
000000b0: 4f37 6f3e fcc2 0f3e 0307 843c b027 d6bd
000000c0: d8ab 4dbe b90d 823d dfd2 2ebe ff6f 59be
000000d0: 62a2 483e 94b9 25be bb2d dbbd 8568 173e
000000e0: ea45 fa3c 9f25 8ebd 9315 16be e574 d13d
000000f0: b09b 593d cf61 783e 1f7a 9bbd 10bc a93d
00000100: c361 92bd 65d2 3ebd 3db0 ccbd 093a 343d
00000110: 2a8f fcba c250 2cbd 3323 91bd be7a d9bd
00000120: 254b a63d dd68 31be 67dc 893d e96e 7abd
00000130: fd46 d4bd bc5a 803c 6a30 ecbd 6bc3 993b
00000140: cbc9 a63c 1808 1cbe ee87 393c b0cc 1d3d
00000150: 5c6c 183d b287 21bd d120 48be 8490 46bd
00000160: d7f9 483d c0fa 90bd 89ac fd3c 57e4 d13d
00000170: ca32 c1bd fdab 63bc aa0b 5c3d efda 8f3a

layers.1.bias f4 [3]
0.043454275 0.016545348 -0.16222867
00000000: 1cfd 313d 1c8a 873c 461f 26be
