checkpoint.pth (torch, 2929 bytes, 4 tensors)

fc1.weight f4 [32, 6]
00000000: 641c 043d 1203 5d3e 5e43 91be cac3 a7be
00000010: bcd2 24be cded 073e 2a33 d43d 5950 c23e
00000020: 4faf b9bb e98d f43c 6bda 5dbe 6543 06bc
00000030: beb7 d3be 3f1c 5cbe 6eba 5bbe 73c4 a0bc
00000040: a3b3 8d3e fd32 383e 5f2d 8bbe cc10 2dbe
00000050: 9f38 1f3e 3288 a63e d63f 13be b0f2 a63e
00000060: 706a 403d 6577 5d3d 8649 e33e 440b d0be
00000070: 1a32 cbbe 2488 603c 9a68 46bd 1095 c23e
00000080: 5330 29be d6fc 4cbe 6bdd 0cbe ad0e 06bf
00000090: ded0 88bd 3aea d23e 9ef4 8d3e a4c7 2e3e
000000a0: ce18 3d3e 7778 b8be 83e2 f03d 3e8f e1be
000000b0: 1794 90be 4e90 01be 39ad 543e 5309 8a3e
000000c0: 4167 f9bd 244d a73d 5b2a 8a3e 365c b13e
000000d0: c74d b33e a4fb 98bd f4ef c43e 555d 93be
000000e0: 2896 f93d 0f44 a4be d60d ffbe aea6 cfbb
000000f0: 0f67 123e 8ffe 223e be0a 89be cb5f c93d
00000100: 618f 193e 8743 e1b9 2f62 0a3d 096f 913d
00000110: 024e 8d3e 5b94 cc3e 349d 4fbe 8ad0 64be
00000120: ed43 6c3e 0c78 bb3e bc94 be3e ce41 af3e
00000130: f51b 2b3e 23ae efbe 1fc0 143e 4bce 23be
00000140: e5ab a1be 7ddd a03e 2073 f23e 0691 0cbf
00000150: 1bd2 693e 41fc 7abd 0e3b 80bc 1bef 6cbe
00000160: 1eff ca3e 1ebb c8be e6b2 703e 3c35 173e
00000170: 2f24 af3e 3b11 233e 4d66 1fbf 58bf 08bd
00000180: bc59 993e 499d ba3d 9f3d 55be 12fb 90be
00000190: faf9 463e 2dd8 cf3e 50f6 15be 8540 aabd
000001a0: 357f d9be 1b7e 72bd 568c c8be 234b 8abe
000001b0: feec db3d 4815 3c3d 2039 64bd 7079 783e
000001c0: 7632 b6be 9548 dc3e a8a5 b23e 6e01 a2be
000001d0: fbc1 cfbc b97e 5ebd 9021 c5bd 57b6 463e
000001e0: 3f7b 5b3e ce74 f73c 3e09 3fbe ad19 3c3e
000001f0: 2a69 79be e496 c1be c87b f3bd 7949 5cbe
00000200: f0ce fdbd 0f03 a0be 6687 36bd ca43 8f3d
00000210: aac1 b1bd fe79 afbd e961 c23e 08c6 58bd
00000220: 51d0 73be fe9a 243e ffe9 fd3d 5968 933e
00000230: e692 c23e 26fe 943e abd7 133f dfd3 47be
00000240: efd9 cbbe 20b5 4bbe 716c 873e b8bd d0ba
00000250: 0520 52be 8044 8bbe 0e96 cfbe 8f5a babe
00000260: 23fa debd 6de7 583e 14d6 453e 59ea b6be
00000270: 295d 643e f733 aebe 984b a9bd 6351 2bbe
00000280: d86e e7bd 7412 e4bc 7f0f c8be 5b02 9dbe
00000290: a460 a4bd 585e 5fbc ce79 00be 097c de3d
000002a0: 3765 9abe da29 2fbd 73e4 e03e 2994 0ebe
000002b0: 1e27 9a3e 5761 4f3e 7217 7fbe 6374 8b3e
000002c0: fb18 40bb 69a3 1ebe 22c8 013f 9194 f6be
000002d0: 2e54 f7bc 71d4 87bd ba0f 753e 15ae af3d
000002e0: 16ea 503e 49bd 033e b5d0 03be a8b7 36bd
000002f0: 7212 d2be 505f 543e eaba da3e 1683 553e
0.032253638 0.21583202 -0.2837171 -0.32766563 -0.16096014 0.13274308 0.10361321 0.37951925
-0.0056666504 0.029852824 -0.21665351 -0.008194779 -0.41351122 -0.2149515 -0.21457836 -0.019624924
0.27676114 0.179882 -0.27183053 -0.16900939 0.15548943 0.32525784 -0.1437982 0.3260703
0.046976507 0.05406894 0.4439203 -0.40633595 -0.39686662 0.013704333 -0.0484396 0.3800435
-0.1652234 -0.20018324 -0.13756339 -0.52366143 -0.06680463 0.41194326 0.2772569 0.17068344
0.18466493 -0.36029407 0.11761954 -0.44054598 -0.28237984 -0.12652704 0.20769204 0.2696024
-0.12177897 0.0816901 0.2698544 0.34640664 0.35020277 -0.07469872 0.3846432 -0.28782144
0.12186843 -0.32083175 -0.49815243 -0.0063370084 0.14297126 0.15917419 -0.26766008 0.09832724
0.14996101 -0.00042965656 0.03378504 0.071012564 0.27598578 0.39956936 -0.20274812 -0.22345176
0.23072787 0.36615026 0.3722285 0.34229892 0.16709884 -0.46812543 0.14526413 -0.15996663
-0.31576458 0.31418982 0.47353458 -0.5490879 0.22834055 -0.061275724 -0.01565316 -0.23138086
0.39647764 -0.3920526 0.23505744 0.14766401 0.34207293 0.15924542 -0.62265474 -0.033385605
0.29951274 0.09112031 -0.20824288 -0.2831655 0.19431296 0.40594617 -0.14644742 -0.083130874
-0.42479864 -0.059202295 -0.39169568 -0.2701045 0.10738562 0.045918733 -0.05571854 0.24265075
-0.35585374 0.43024126 0.3489201 -0.31641716 -0.025361052 -0.05432007 -0.09625542 0.19405495
0.21433733 0.030207064 -0.1865587 0.1836917 -0.24356523 -0.37810433 -0.11888844 -0.21512403
-0.12392986 -0.31252334 -0.04456272 0.069953516 -0.086795166 -0.0856819 0.37965325 -0.052923232
-0.23809935 0.1607475 0.12398147 0.28790548 0.380027 0.2910015 0.5775096 -0.19514416
-0.39814708 -0.19893312 0.26449922 -0.0015925681 -0.20520027 -0.272007 -0.4054417 -0.36397216
-0.108875535 0.21182032 0.19319946 -0.35725668 0.22301163 -0.3402402 -0.082663715 -0.16730265
-0.11300439 -0.02784083 -0.39074323 -0.3066586 -0.08026245 -0.013633333 -0.12546465 0.108635016
-0.30155346 -0.042764522 0.43924293 -0.13923706 0.3010797 0.20251976 -0.24911287 0.27237234
-0.0029311765 -0.15492024 0.50696003 -0.48160222 -0.030191507 -0.06632317 0.2393178 0.085781254
0.20401797 0.12865175 -0.12872584 -0.044608742 -0.41029698 0.20739484 0.4272073 0.20850787

fc1.bias f4 [32]
00000000: c093 88be 4d7d 1e3e 75cf b2be cbee 48be
00000010: f382 01be d551 803e e7dc 0ebd 23bf e53c
00000020: d63d df3d 1cd5 ce3e 4f1b bdbe 67df 88be
00000030: 8ef0 1bbe bc52 dc3e 372f 693d 6ee4 e33e
00000040: 1cb1 6c3e 249f d53d 196c 053e 63d0 01ba
00000050: b8ba 0f3e b067 0bbe 973b 633e e888 143e
00000060: 64dc c1be 6205 7bbe ac4b 933e aa1e c9be
00000070: 0bc8 3e3c 0111 0e3f 1fe5 a13d 9b0a 39bd
-0.26675224 0.15477486 -0.34923902 -0.19622342 -0.1264761 0.25062433 -0.034878638 0.028045243
0.10900466 0.40396965 -0.36934897 -0.26732942 -0.15228483 0.4303187 0.056929793 0.44510216
0.23114437 0.10430744 0.13029517 -0.00049520115 0.14036071 -0.13613772 0.221907 0.1450535
-0.37863457 -0.24513772 0.2876867 -0.39281207 0.011644374 0.55494696 0.079050295 -0.04517613

fc2.weight f4 [3, 32]
00000000: 0d5f 3ebd ed80 203e 4670 20be b6ce 623d
00000010: d489 1f3e 9dd3 8ebd ecd8 e1bd 20d7 233e
00000020: af43 6dbd 7c89 9f3e f93a 923d 1d11 a5bd
00000030: 75c6 6dbc 88bd 71be 3239 49be ae95 4d3e
00000040: 7b3f 103e 25a8 113e abdf b73d 36ec 1b3e
00000050: 0f47 af3d 6ee1 b3bd 5961 bb3e ee13 82be
00000060: 4b64 64bb 9cf5 a0bd d1c1 f73b 85f9 ce3d
00000070: 475d f03d 29e1 36be 6c09 4fbd 3e93 9abd
00000080: 2a4c 54be e004 c13d 9b1b 3bbd 0657 36be
00000090: 9a27 50be 3cb5 4b3e f1c6 763e 159e 213e
000000a0: 64ac 603e cd34 cdbd 1396 f43b 1b7d 1f3d
000000b0: 6c7b 8b3e 64fd 463e c401 9f3d fced ffbd
000000c0: d60c 46be 8573 8d3d f2d3 3cbe a598 66be
000000d0: 7116 573e 347c 20be 31ed 04be be40 523e
000000e0: 7646 f53c 78bd 52bd 5e4f 12be dc5f d63d
000000f0: 658e af3d ef3d 993e 490b 4fbd e8a3 e13d
00000100: 5d96 dbbd dff8 e5bd e042 d1bd 7ba3 333c
00000110: d6d5 a1bd 1f93 8fbd 0606 ddbd 6181 03be
00000120: 111f db3c b3a3 8abe cff7 733d 909b b2bd
00000130: ece4 0bbe 3d3e cbbc 1dc9 22be 19c5 b4bd
00000140: 3b15 82bc 7cec 37be da60 1cbd 1d96 a4bc
00000150: 795e a03b 6a55 79bd fa47 9fbe 80a9 c3bd
00000160: c827 153d db37 b1bd c0ae 3cbd ba2b 9f3d
00000170: 1a41 c2bd 63f8 3fbd a4b3 a03c b657 28bc
-0.046477366 0.15674181 -0.15667829 0.055372916 0.15579921 -0.06973956 -0.11027703 0.16000032
-0.057925876 0.3115958 0.071401544 -0.08059905 -0.014512648 -0.23607457 -0.19650725 0.2007663
0.14086716 0.14224298 0.08978208 0.15226826 0.08558475 -0.08783232 0.36597708 -0.2540583
-0.0034849818 -0.07859346 0.0075609465 0.10106186 0.11736541 -0.1785933 -0.050546095 -0.075476155
-0.2073218 0.09424758 -0.045680624 -0.17806634 -0.20327607 0.19893354 0.24099328 0.1578296
0.21940762 -0.100198366 0.0074641793 0.03893767 0.272426 0.19432598 0.07764009 -0.12496564
-0.19340834 0.06906799 -0.18440226 -0.22519167 0.21004654 -0.1567238 -0.12981106 0.2053251
0.029940825 -0.051450223 -0.14288089 0.104675025 0.085720815 0.29930064 -0.05054787 0.11017591
-0.10722039 -0.11229109 -0.102178335 0.01096427 -0.07902114 -0.07010483 -0.107921645 -0.12842323
0.026748212 -0.27078018 0.0595625 -0.087210774 -0.13661546 -0.024809951 -0.15897031 -0.08826656
-0.015879264 -0.17961305 -0.038178302 -0.02009111 0.0048940745 -0.060872473 -0.311096 -0.09553814
0.03641489 -0.08653232 -0.046065092 0.07772012 -0.094850734 -0.04686774 0.01961691 -0.010274818

fc2.bias f4 [3]
00000000: c107 c43d 04d7 163d 3b34 75be
0.095717914 0.03682615 -0.23945706
